…
/home/cursos/ima543_2025_1/ima543_oayala/.conda/envs/IMA543_2025_1/lib/python3.10/site-packages/keras/optimizers/optimizer_v2/adam.py:114: UserWarning: The `lr` argument is deprecated, use `learning_rate` instead.
  super().__init__(name, **kwargs)
Model: "model"
__________________________________________________________________________________________________
 Layer (type)                   Output Shape         Param #     Connected to                     
==================================================================================================
 input_1 (InputLayer)           [(None, 64, 64, 1)]  0           []                               
                                                                                                  
 conv2d (Conv2D)                (None, 64, 64, 16)   160         ['input_1[0][0]']                
                                                                                                  
 batch_normalization (BatchNorm  (None, 64, 64, 16)  64          ['conv2d[0][0]']                 
 alization)                                                                                       
                                                                                                  
 activation (Activation)        (None, 64, 64, 16)   0           ['batch_normalization[0][0]']    
                                                                                                  
 conv2d_1 (Conv2D)              (None, 64, 64, 16)   2320        ['activation[0][0]']             
                                                                                                  
 batch_normalization_1 (BatchNo  (None, 64, 64, 16)  64          ['conv2d_1[0][0]']               
 rmalization)                                                                                     
                                                                                                  
 activation_1 (Activation)      (None, 64, 64, 16)   0           ['batch_normalization_1[0][0]']  
                                                                                                  
 conv2d_2 (Conv2D)              (None, 64, 64, 16)   2320        ['activation_1[0][0]']           
                                                                                                  
 batch_normalization_2 (BatchNo  (None, 64, 64, 16)  64          ['conv2d_2[0][0]']               
 rmalization)                                                                                     
                                                                                                  
 add (Add)                      (None, 64, 64, 16)   0           ['activation[0][0]',             
                                                                  'batch_normalization_2[0][0]']  
                                                                                                  
 activation_2 (Activation)      (None, 64, 64, 16)   0           ['add[0][0]']                    
                                                                                                  
 conv2d_3 (Conv2D)              (None, 64, 64, 16)   2320        ['activation_2[0][0]']           
                                                                                                  
 batch_normalization_3 (BatchNo  (None, 64, 64, 16)  64          ['conv2d_3[0][0]']               
 rmalization)                                                                                     
                                                                                                  
 activation_3 (Activation)      (None, 64, 64, 16)   0           ['batch_normalization_3[0][0]']  
                                                                                                  
 conv2d_4 (Conv2D)              (None, 64, 64, 16)   2320        ['activation_3[0][0]']           
                                                                                                  
 batch_normalization_4 (BatchNo  (None, 64, 64, 16)  64          ['conv2d_4[0][0]']               
 rmalization)                                                                                     
                                                                                                  
 add_1 (Add)                    (None, 64, 64, 16)   0           ['activation_2[0][0]',           
                                                                  'batch_normalization_4[0][0]']  
                                                                                                  
 activation_4 (Activation)      (None, 64, 64, 16)   0           ['add_1[0][0]']                  
                                                                                                  
 conv2d_5 (Conv2D)              (None, 64, 64, 16)   2320        ['activation_4[0][0]']           
                                                                                                  
 batch_normalization_5 (BatchNo  (None, 64, 64, 16)  64          ['conv2d_5[0][0]']               
 rmalization)                                                                                     
                                                                                                  
 activation_5 (Activation)      (None, 64, 64, 16)   0           ['batch_normalization_5[0][0]']  
                                                                                                  
 conv2d_6 (Conv2D)              (None, 64, 64, 16)   2320        ['activation_5[0][0]']           
                                                                                                  
 batch_normalization_6 (BatchNo  (None, 64, 64, 16)  64          ['conv2d_6[0][0]']               
 rmalization)                                                                                     
                                                                                                  
 add_2 (Add)                    (None, 64, 64, 16)   0           ['activation_4[0][0]',           
                                                                  'batch_normalization_6[0][0]']  
                                                                                                  
 activation_6 (Activation)      (None, 64, 64, 16)   0           ['add_2[0][0]']                  
                                                                                                  
 conv2d_7 (Conv2D)              (None, 64, 64, 16)   2320        ['activation_6[0][0]']           
                                                                                                  
 batch_normalization_7 (BatchNo  (None, 64, 64, 16)  64          ['conv2d_7[0][0]']               
 rmalization)                                                                                     
                                                                                                  
 activation_7 (Activation)      (None, 64, 64, 16)   0           ['batch_normalization_7[0][0]']  
                                                                                                  
 conv2d_8 (Conv2D)              (None, 64, 64, 16)   2320        ['activation_7[0][0]']           
                                                                                                  
 batch_normalization_8 (BatchNo  (None, 64, 64, 16)  64          ['conv2d_8[0][0]']               
 rmalization)                                                                                     
                                                                                                  
 add_3 (Add)                    (None, 64, 64, 16)   0           ['activation_6[0][0]',           
                                                                  'batch_normalization_8[0][0]']  
                                                                                                  
 activation_8 (Activation)      (None, 64, 64, 16)   0           ['add_3[0][0]']                  
                                                                                                  
 conv2d_9 (Conv2D)              (None, 64, 64, 16)   2320        ['activation_8[0][0]']           
                                                                                                  
 batch_normalization_9 (BatchNo  (None, 64, 64, 16)  64          ['conv2d_9[0][0]']               
 rmalization)                                                                                     
                                                                                                  
 activation_9 (Activation)      (None, 64, 64, 16)   0           ['batch_normalization_9[0][0]']  
                                                                                                  
 conv2d_10 (Conv2D)             (None, 64, 64, 16)   2320        ['activation_9[0][0]']           
                                                                                                  
 batch_normalization_10 (BatchN  (None, 64, 64, 16)  64          ['conv2d_10[0][0]']              
 ormalization)                                                                                    
                                                                                                  
 add_4 (Add)                    (None, 64, 64, 16)   0           ['activation_8[0][0]',           
                                                                  'batch_normalization_10[0][0]'] 
                                                                                                  
 activation_10 (Activation)     (None, 64, 64, 16)   0           ['add_4[0][0]']                  
                                                                                                  
 conv2d_11 (Conv2D)             (None, 64, 64, 16)   2320        ['activation_10[0][0]']          
                                                                                                  
 batch_normalization_11 (BatchN  (None, 64, 64, 16)  64          ['conv2d_11[0][0]']              
 ormalization)                                                                                    
                                                                                                  
 activation_11 (Activation)     (None, 64, 64, 16)   0           ['batch_normalization_11[0][0]'] 
                                                                                                  
 conv2d_12 (Conv2D)             (None, 64, 64, 16)   2320        ['activation_11[0][0]']          
                                                                                                  
 batch_normalization_12 (BatchN  (None, 64, 64, 16)  64          ['conv2d_12[0][0]']              
 ormalization)                                                                                    
                                                                                                  
 add_5 (Add)                    (None, 64, 64, 16)   0           ['activation_10[0][0]',          
                                                                  'batch_normalization_12[0][0]'] 
                                                                                                  
 activation_12 (Activation)     (None, 64, 64, 16)   0           ['add_5[0][0]']                  
                                                                                                  
 conv2d_13 (Conv2D)             (None, 64, 64, 16)   2320        ['activation_12[0][0]']          
                                                                                                  
 batch_normalization_13 (BatchN  (None, 64, 64, 16)  64          ['conv2d_13[0][0]']              
 ormalization)                                                                                    
                                                                                                  
 activation_13 (Activation)     (None, 64, 64, 16)   0           ['batch_normalization_13[0][0]'] 
                                                                                                  
 conv2d_14 (Conv2D)             (None, 64, 64, 16)   2320        ['activation_13[0][0]']          
                                                                                                  
 batch_normalization_14 (BatchN  (None, 64, 64, 16)  64          ['conv2d_14[0][0]']              
 ormalization)                                                                                    
                                                                                                  
 add_6 (Add)                    (None, 64, 64, 16)   0           ['activation_12[0][0]',          
                                                                  'batch_normalization_14[0][0]'] 
                                                                                                  
 activation_14 (Activation)     (None, 64, 64, 16)   0           ['add_6[0][0]']                  
                                                                                                  
 conv2d_15 (Conv2D)             (None, 64, 64, 16)   2320        ['activation_14[0][0]']          
                                                                                                  
 batch_normalization_15 (BatchN  (None, 64, 64, 16)  64          ['conv2d_15[0][0]']              
 ormalization)                                                                                    
                                                                                                  
 activation_15 (Activation)     (None, 64, 64, 16)   0           ['batch_normalization_15[0][0]'] 
                                                                                                  
 conv2d_16 (Conv2D)             (None, 64, 64, 16)   2320        ['activation_15[0][0]']          
                                                                                                  
 batch_normalization_16 (BatchN  (None, 64, 64, 16)  64          ['conv2d_16[0][0]']              
 ormalization)                                                                                    
                                                                                                  
 add_7 (Add)                    (None, 64, 64, 16)   0           ['activation_14[0][0]',          
                                                                  'batch_normalization_16[0][0]'] 
                                                                                                  
 activation_16 (Activation)     (None, 64, 64, 16)   0           ['add_7[0][0]']                  
                                                                                                  
 conv2d_17 (Conv2D)             (None, 64, 64, 16)   2320        ['activation_16[0][0]']          
                                                                                                  
 batch_normalization_17 (BatchN  (None, 64, 64, 16)  64          ['conv2d_17[0][0]']              
 ormalization)                                                                                    
                                                                                                  
 activation_17 (Activation)     (None, 64, 64, 16)   0           ['batch_normalization_17[0][0]'] 
                                                                                                  
 conv2d_18 (Conv2D)             (None, 64, 64, 16)   2320        ['activation_17[0][0]']          
                                                                                                  
 batch_normalization_18 (BatchN  (None, 64, 64, 16)  64          ['conv2d_18[0][0]']              
 ormalization)                                                                                    
                                                                                                  
 add_8 (Add)                    (None, 64, 64, 16)   0           ['activation_16[0][0]',          
                                                                  'batch_normalization_18[0][0]'] 
                                                                                                  
 activation_18 (Activation)     (None, 64, 64, 16)   0           ['add_8[0][0]']                  
                                                                                                  
 conv2d_19 (Conv2D)             (None, 64, 64, 16)   2320        ['activation_18[0][0]']          
                                                                                                  
 batch_normalization_19 (BatchN  (None, 64, 64, 16)  64          ['conv2d_19[0][0]']              
 ormalization)                                                                                    
                                                                                                  
 activation_19 (Activation)     (None, 64, 64, 16)   0           ['batch_normalization_19[0][0]'] 
                                                                                                  
 conv2d_20 (Conv2D)             (None, 64, 64, 16)   2320        ['activation_19[0][0]']          
                                                                                                  
 batch_normalization_20 (BatchN  (None, 64, 64, 16)  64          ['conv2d_20[0][0]']              
 ormalization)                                                                                    
                                                                                                  
 add_9 (Add)                    (None, 64, 64, 16)   0           ['activation_18[0][0]',          
                                                                  'batch_normalization_20[0][0]'] 
                                                                                                  
 activation_20 (Activation)     (None, 64, 64, 16)   0           ['add_9[0][0]']                  
                                                                                                  
 conv2d_21 (Conv2D)             (None, 64, 64, 16)   2320        ['activation_20[0][0]']          
                                                                                                  
 batch_normalization_21 (BatchN  (None, 64, 64, 16)  64          ['conv2d_21[0][0]']              
 ormalization)                                                                                    
                                                                                                  
 activation_21 (Activation)     (None, 64, 64, 16)   0           ['batch_normalization_21[0][0]'] 
                                                                                                  
 conv2d_22 (Conv2D)             (None, 64, 64, 16)   2320        ['activation_21[0][0]']          
                                                                                                  
 batch_normalization_22 (BatchN  (None, 64, 64, 16)  64          ['conv2d_22[0][0]']              
 ormalization)                                                                                    
                                                                                                  
 add_10 (Add)                   (None, 64, 64, 16)   0           ['activation_20[0][0]',          
                                                                  'batch_normalization_22[0][0]'] 
                                                                                                  
 activation_22 (Activation)     (None, 64, 64, 16)   0           ['add_10[0][0]']                 
                                                                                                  
 conv2d_23 (Conv2D)             (None, 64, 64, 16)   2320        ['activation_22[0][0]']          
                                                                                                  
 batch_normalization_23 (BatchN  (None, 64, 64, 16)  64          ['conv2d_23[0][0]']              
 ormalization)                                                                                    
                                                                                                  
 activation_23 (Activation)     (None, 64, 64, 16)   0           ['batch_normalization_23[0][0]'] 
                                                                                                  
 conv2d_24 (Conv2D)             (None, 64, 64, 16)   2320        ['activation_23[0][0]']          
                                                                                                  
 batch_normalization_24 (BatchN  (None, 64, 64, 16)  64          ['conv2d_24[0][0]']              
 ormalization)                                                                                    
                                                                                                  
 add_11 (Add)                   (None, 64, 64, 16)   0           ['activation_22[0][0]',          
                                                                  'batch_normalization_24[0][0]'] 
                                                                                                  
 activation_24 (Activation)     (None, 64, 64, 16)   0           ['add_11[0][0]']                 
                                                                                                  
 conv2d_25 (Conv2D)             (None, 64, 64, 16)   2320        ['activation_24[0][0]']          
                                                                                                  
 batch_normalization_25 (BatchN  (None, 64, 64, 16)  64          ['conv2d_25[0][0]']              
 ormalization)                                                                                    
                                                                                                  
 activation_25 (Activation)     (None, 64, 64, 16)   0           ['batch_normalization_25[0][0]'] 
                                                                                                  
 conv2d_26 (Conv2D)             (None, 64, 64, 16)   2320        ['activation_25[0][0]']          
                                                                                                  
 batch_normalization_26 (BatchN  (None, 64, 64, 16)  64          ['conv2d_26[0][0]']              
 ormalization)                                                                                    
                                                                                                  
 add_12 (Add)                   (None, 64, 64, 16)   0           ['activation_24[0][0]',          
                                                                  'batch_normalization_26[0][0]'] 
                                                                                                  
 activation_26 (Activation)     (None, 64, 64, 16)   0           ['add_12[0][0]']                 
                                                                                                  
 conv2d_27 (Conv2D)             (None, 64, 64, 16)   2320        ['activation_26[0][0]']          
                                                                                                  
 batch_normalization_27 (BatchN  (None, 64, 64, 16)  64          ['conv2d_27[0][0]']              
 ormalization)                                                                                    
                                                                                                  
 activation_27 (Activation)     (None, 64, 64, 16)   0           ['batch_normalization_27[0][0]'] 
                                                                                                  
 conv2d_28 (Conv2D)             (None, 64, 64, 16)   2320        ['activation_27[0][0]']          
                                                                                                  
 batch_normalization_28 (BatchN  (None, 64, 64, 16)  64          ['conv2d_28[0][0]']              
 ormalization)                                                                                    
                                                                                                  
 add_13 (Add)                   (None, 64, 64, 16)   0           ['activation_26[0][0]',          
                                                                  'batch_normalization_28[0][0]'] 
                                                                                                  
 activation_28 (Activation)     (None, 64, 64, 16)   0           ['add_13[0][0]']                 
                                                                                                  
 conv2d_29 (Conv2D)             (None, 64, 64, 16)   2320        ['activation_28[0][0]']          
                                                                                                  
 batch_normalization_29 (BatchN  (None, 64, 64, 16)  64          ['conv2d_29[0][0]']              
 ormalization)                                                                                    
                                                                                                  
 activation_29 (Activation)     (None, 64, 64, 16)   0           ['batch_normalization_29[0][0]'] 
                                                                                                  
 conv2d_30 (Conv2D)             (None, 64, 64, 16)   2320        ['activation_29[0][0]']          
                                                                                                  
 batch_normalization_30 (BatchN  (None, 64, 64, 16)  64          ['conv2d_30[0][0]']              
 ormalization)                                                                                    
                                                                                                  
 add_14 (Add)                   (None, 64, 64, 16)   0           ['activation_28[0][0]',          
                                                                  'batch_normalization_30[0][0]'] 
                                                                                                  
 activation_30 (Activation)     (None, 64, 64, 16)   0           ['add_14[0][0]']                 
                                                                                                  
 conv2d_31 (Conv2D)             (None, 64, 64, 16)   2320        ['activation_30[0][0]']          
                                                                                                  
 batch_normalization_31 (BatchN  (None, 64, 64, 16)  64          ['conv2d_31[0][0]']              
 ormalization)                                                                                    
                                                                                                  
 activation_31 (Activation)     (None, 64, 64, 16)   0           ['batch_normalization_31[0][0]'] 
                                                                                                  
 conv2d_32 (Conv2D)             (None, 64, 64, 16)   2320        ['activation_31[0][0]']          
                                                                                                  
 batch_normalization_32 (BatchN  (None, 64, 64, 16)  64          ['conv2d_32[0][0]']              
 ormalization)                                                                                    
                                                                                                  
 add_15 (Add)                   (None, 64, 64, 16)   0           ['activation_30[0][0]',          
                                                                  'batch_normalization_32[0][0]'] 
                                                                                                  
 activation_32 (Activation)     (None, 64, 64, 16)   0           ['add_15[0][0]']                 
                                                                                                  
 conv2d_33 (Conv2D)             (None, 64, 64, 16)   2320        ['activation_32[0][0]']          
                                                                                                  
 batch_normalization_33 (BatchN  (None, 64, 64, 16)  64          ['conv2d_33[0][0]']              
 ormalization)                                                                                    
                                                                                                  
 activation_33 (Activation)     (None, 64, 64, 16)   0           ['batch_normalization_33[0][0]'] 
                                                                                                  
 conv2d_34 (Conv2D)             (None, 64, 64, 16)   2320        ['activation_33[0][0]']          
                                                                                                  
 batch_normalization_34 (BatchN  (None, 64, 64, 16)  64          ['conv2d_34[0][0]']              
 ormalization)                                                                                    
                                                                                                  
 add_16 (Add)                   (None, 64, 64, 16)   0           ['activation_32[0][0]',          
                                                                  'batch_normalization_34[0][0]'] 
                                                                                                  
 activation_34 (Activation)     (None, 64, 64, 16)   0           ['add_16[0][0]']                 
                                                                                                  
 conv2d_35 (Conv2D)             (None, 32, 32, 32)   4640        ['activation_34[0][0]']          
                                                                                                  
 batch_normalization_35 (BatchN  (None, 32, 32, 32)  128         ['conv2d_35[0][0]']              
 ormalization)                                                                                    
                                                                                                  
 activation_35 (Activation)     (None, 32, 32, 32)   0           ['batch_normalization_35[0][0]'] 
                                                                                                  
 conv2d_36 (Conv2D)             (None, 32, 32, 32)   9248        ['activation_35[0][0]']          
                                                                                                  
 conv2d_37 (Conv2D)             (None, 32, 32, 32)   544         ['activation_34[0][0]']          
                                                                                                  
 batch_normalization_36 (BatchN  (None, 32, 32, 32)  128         ['conv2d_36[0][0]']              
 ormalization)                                                                                    
                                                                                                  
 add_17 (Add)                   (None, 32, 32, 32)   0           ['conv2d_37[0][0]',              
                                                                  'batch_normalization_36[0][0]'] 
                                                                                                  
 activation_36 (Activation)     (None, 32, 32, 32)   0           ['add_17[0][0]']                 
                                                                                                  
 conv2d_38 (Conv2D)             (None, 32, 32, 32)   9248        ['activation_36[0][0]']          
                                                                                                  
 batch_normalization_37 (BatchN  (None, 32, 32, 32)  128         ['conv2d_38[0][0]']              
 ormalization)                                                                                    
                                                                                                  
 activation_37 (Activation)     (None, 32, 32, 32)   0           ['batch_normalization_37[0][0]'] 
                                                                                                  
 conv2d_39 (Conv2D)             (None, 32, 32, 32)   9248        ['activation_37[0][0]']          
                                                                                                  
 batch_normalization_38 (BatchN  (None, 32, 32, 32)  128         ['conv2d_39[0][0]']              
 ormalization)                                                                                    
                                                                                                  
 add_18 (Add)                   (None, 32, 32, 32)   0           ['activation_36[0][0]',          
                                                                  'batch_normalization_38[0][0]'] 
                                                                                                  
 activation_38 (Activation)     (None, 32, 32, 32)   0           ['add_18[0][0]']                 
                                                                                                  
 conv2d_40 (Conv2D)             (None, 32, 32, 32)   9248        ['activation_38[0][0]']          
                                                                                                  
 batch_normalization_39 (BatchN  (None, 32, 32, 32)  128         ['conv2d_40[0][0]']              
 ormalization)                                                                                    
                                                                                                  
 activation_39 (Activation)     (None, 32, 32, 32)   0           ['batch_normalization_39[0][0]'] 
                                                                                                  
 conv2d_41 (Conv2D)             (None, 32, 32, 32)   9248        ['activation_39[0][0]']          
                                                                                                  
 batch_normalization_40 (BatchN  (None, 32, 32, 32)  128         ['conv2d_41[0][0]']              
 ormalization)                                                                                    
                                                                                                  
 add_19 (Add)                   (None, 32, 32, 32)   0           ['activation_38[0][0]',          
                                                                  'batch_normalization_40[0][0]'] 
                                                                                                  
 activation_40 (Activation)     (None, 32, 32, 32)   0           ['add_19[0][0]']                 
                                                                                                  
 conv2d_42 (Conv2D)             (None, 32, 32, 32)   9248        ['activation_40[0][0]']          
                                                                                                  
 batch_normalization_41 (BatchN  (None, 32, 32, 32)  128         ['conv2d_42[0][0]']              
 ormalization)                                                                                    
                                                                                                  
 activation_41 (Activation)     (None, 32, 32, 32)   0           ['batch_normalization_41[0][0]'] 
                                                                                                  
 conv2d_43 (Conv2D)             (None, 32, 32, 32)   9248        ['activation_41[0][0]']          
                                                                                                  
 batch_normalization_42 (BatchN  (None, 32, 32, 32)  128         ['conv2d_43[0][0]']              
 ormalization)                                                                                    
                                                                                                  
 add_20 (Add)                   (None, 32, 32, 32)   0           ['activation_40[0][0]',          
                                                                  'batch_normalization_42[0][0]'] 
                                                                                                  
 activation_42 (Activation)     (None, 32, 32, 32)   0           ['add_20[0][0]']                 
                                                                                                  
 conv2d_44 (Conv2D)             (None, 32, 32, 32)   9248        ['activation_42[0][0]']          
                                                                                                  
 batch_normalization_43 (BatchN  (None, 32, 32, 32)  128         ['conv2d_44[0][0]']              
 ormalization)                                                                                    
                                                                                                  
 activation_43 (Activation)     (None, 32, 32, 32)   0           ['batch_normalization_43[0][0]'] 
                                                                                                  
 conv2d_45 (Conv2D)             (None, 32, 32, 32)   9248        ['activation_43[0][0]']          
                                                                                                  
 batch_normalization_44 (BatchN  (None, 32, 32, 32)  128         ['conv2d_45[0][0]']              
 ormalization)                                                                                    
                                                                                                  
 add_21 (Add)                   (None, 32, 32, 32)   0           ['activation_42[0][0]',          
                                                                  'batch_normalization_44[0][0]'] 
                                                                                                  
 activation_44 (Activation)     (None, 32, 32, 32)   0           ['add_21[0][0]']                 
                                                                                                  
 conv2d_46 (Conv2D)             (None, 32, 32, 32)   9248        ['activation_44[0][0]']          
                                                                                                  
 batch_normalization_45 (BatchN  (None, 32, 32, 32)  128         ['conv2d_46[0][0]']              
 ormalization)                                                                                    
                                                                                                  
 activation_45 (Activation)     (None, 32, 32, 32)   0           ['batch_normalization_45[0][0]'] 
                                                                                                  
 conv2d_47 (Conv2D)             (None, 32, 32, 32)   9248        ['activation_45[0][0]']          
                                                                                                  
 batch_normalization_46 (BatchN  (None, 32, 32, 32)  128         ['conv2d_47[0][0]']              
 ormalization)                                                                                    
                                                                                                  
 add_22 (Add)                   (None, 32, 32, 32)   0           ['activation_44[0][0]',          
                                                                  'batch_normalization_46[0][0]'] 
                                                                                                  
 activation_46 (Activation)     (None, 32, 32, 32)   0           ['add_22[0][0]']                 
                                                                                                  
 conv2d_48 (Conv2D)             (None, 32, 32, 32)   9248        ['activation_46[0][0]']          
                                                                                                  
 batch_normalization_47 (BatchN  (None, 32, 32, 32)  128         ['conv2d_48[0][0]']              
 ormalization)                                                                                    
                                                                                                  
 activation_47 (Activation)     (None, 32, 32, 32)   0           ['batch_normalization_47[0][0]'] 
                                                                                                  
 conv2d_49 (Conv2D)             (None, 32, 32, 32)   9248        ['activation_47[0][0]']          
                                                                                                  
 batch_normalization_48 (BatchN  (None, 32, 32, 32)  128         ['conv2d_49[0][0]']              
 ormalization)                                                                                    
                                                                                                  
 add_23 (Add)                   (None, 32, 32, 32)   0           ['activation_46[0][0]',          
                                                                  'batch_normalization_48[0][0]'] 
                                                                                                  
 activation_48 (Activation)     (None, 32, 32, 32)   0           ['add_23[0][0]']                 
                                                                                                  
 conv2d_50 (Conv2D)             (None, 32, 32, 32)   9248        ['activation_48[0][0]']          
                                                                                                  
 batch_normalization_49 (BatchN  (None, 32, 32, 32)  128         ['conv2d_50[0][0]']              
 ormalization)                                                                                    
                                                                                                  
 activation_49 (Activation)     (None, 32, 32, 32)   0           ['batch_normalization_49[0][0]'] 
                                                                                                  
 conv2d_51 (Conv2D)             (None, 32, 32, 32)   9248        ['activation_49[0][0]']          
                                                                                                  
 batch_normalization_50 (BatchN  (None, 32, 32, 32)  128         ['conv2d_51[0][0]']              
 ormalization)                                                                                    
                                                                                                  
 add_24 (Add)                   (None, 32, 32, 32)   0           ['activation_48[0][0]',          
                                                                  'batch_normalization_50[0][0]'] 
                                                                                                  
 activation_50 (Activation)     (None, 32, 32, 32)   0           ['add_24[0][0]']                 
                                                                                                  
 conv2d_52 (Conv2D)             (None, 32, 32, 32)   9248        ['activation_50[0][0]']          
                                                                                                  
 batch_normalization_51 (BatchN  (None, 32, 32, 32)  128         ['conv2d_52[0][0]']              
 ormalization)                                                                                    
                                                                                                  
 activation_51 (Activation)     (None, 32, 32, 32)   0           ['batch_normalization_51[0][0]'] 
                                                                                                  
 conv2d_53 (Conv2D)             (None, 32, 32, 32)   9248        ['activation_51[0][0]']          
                                                                                                  
 batch_normalization_52 (BatchN  (None, 32, 32, 32)  128         ['conv2d_53[0][0]']              
 ormalization)                                                                                    
                                                                                                  
 add_25 (Add)                   (None, 32, 32, 32)   0           ['activation_50[0][0]',          
                                                                  'batch_normalization_52[0][0]'] 
                                                                                                  
 activation_52 (Activation)     (None, 32, 32, 32)   0           ['add_25[0][0]']                 
                                                                                                  
 conv2d_54 (Conv2D)             (None, 32, 32, 32)   9248        ['activation_52[0][0]']          
                                                                                                  
 batch_normalization_53 (BatchN  (None, 32, 32, 32)  128         ['conv2d_54[0][0]']              
 ormalization)                                                                                    
                                                                                                  
 activation_53 (Activation)     (None, 32, 32, 32)   0           ['batch_normalization_53[0][0]'] 
                                                                                                  
 conv2d_55 (Conv2D)             (None, 32, 32, 32)   9248        ['activation_53[0][0]']          
                                                                                                  
 batch_normalization_54 (BatchN  (None, 32, 32, 32)  128         ['conv2d_55[0][0]']              
 ormalization)                                                                                    
                                                                                                  
 add_26 (Add)                   (None, 32, 32, 32)   0           ['activation_52[0][0]',          
                                                                  'batch_normalization_54[0][0]'] 
                                                                                                  
 activation_54 (Activation)     (None, 32, 32, 32)   0           ['add_26[0][0]']                 
                                                                                                  
 conv2d_56 (Conv2D)             (None, 32, 32, 32)   9248        ['activation_54[0][0]']          
                                                                                                  
 batch_normalization_55 (BatchN  (None, 32, 32, 32)  128         ['conv2d_56[0][0]']              
 ormalization)                                                                                    
                                                                                                  
 activation_55 (Activation)     (None, 32, 32, 32)   0           ['batch_normalization_55[0][0]'] 
                                                                                                  
 conv2d_57 (Conv2D)             (None, 32, 32, 32)   9248        ['activation_55[0][0]']          
                                                                                                  
 batch_normalization_56 (BatchN  (None, 32, 32, 32)  128         ['conv2d_57[0][0]']              
 ormalization)                                                                                    
                                                                                                  
 add_27 (Add)                   (None, 32, 32, 32)   0           ['activation_54[0][0]',          
                                                                  'batch_normalization_56[0][0]'] 
                                                                                                  
 activation_56 (Activation)     (None, 32, 32, 32)   0           ['add_27[0][0]']                 
                                                                                                  
 conv2d_58 (Conv2D)             (None, 32, 32, 32)   9248        ['activation_56[0][0]']          
                                                                                                  
 batch_normalization_57 (BatchN  (None, 32, 32, 32)  128         ['conv2d_58[0][0]']              
 ormalization)                                                                                    
                                                                                                  
 activation_57 (Activation)     (None, 32, 32, 32)   0           ['batch_normalization_57[0][0]'] 
                                                                                                  
 conv2d_59 (Conv2D)             (None, 32, 32, 32)   9248        ['activation_57[0][0]']          
                                                                                                  
 batch_normalization_58 (BatchN  (None, 32, 32, 32)  128         ['conv2d_59[0][0]']              
 ormalization)                                                                                    
                                                                                                  
 add_28 (Add)                   (None, 32, 32, 32)   0           ['activation_56[0][0]',          
                                                                  'batch_normalization_58[0][0]'] 
                                                                                                  
 activation_58 (Activation)     (None, 32, 32, 32)   0           ['add_28[0][0]']                 
                                                                                                  
 conv2d_60 (Conv2D)             (None, 32, 32, 32)   9248        ['activation_58[0][0]']          
                                                                                                  
 batch_normalization_59 (BatchN  (None, 32, 32, 32)  128         ['conv2d_60[0][0]']              
 ormalization)                                                                                    
                                                                                                  
 activation_59 (Activation)     (None, 32, 32, 32)   0           ['batch_normalization_59[0][0]'] 
                                                                                                  
 conv2d_61 (Conv2D)             (None, 32, 32, 32)   9248        ['activation_59[0][0]']          
                                                                                                  
 batch_normalization_60 (BatchN  (None, 32, 32, 32)  128         ['conv2d_61[0][0]']              
 ormalization)                                                                                    
                                                                                                  
 add_29 (Add)                   (None, 32, 32, 32)   0           ['activation_58[0][0]',          
                                                                  'batch_normalization_60[0][0]'] 
                                                                                                  
 activation_60 (Activation)     (None, 32, 32, 32)   0           ['add_29[0][0]']                 
                                                                                                  
 conv2d_62 (Conv2D)             (None, 32, 32, 32)   9248        ['activation_60[0][0]']          
                                                                                                  
 batch_normalization_61 (BatchN  (None, 32, 32, 32)  128         ['conv2d_62[0][0]']              
 ormalization)                                                                                    
                                                                                                  
 activation_61 (Activation)     (None, 32, 32, 32)   0           ['batch_normalization_61[0][0]'] 
                                                                                                  
 conv2d_63 (Conv2D)             (None, 32, 32, 32)   9248        ['activation_61[0][0]']          
                                                                                                  
 batch_normalization_62 (BatchN  (None, 32, 32, 32)  128         ['conv2d_63[0][0]']              
 ormalization)                                                                                    
                                                                                                  
 add_30 (Add)                   (None, 32, 32, 32)   0           ['activation_60[0][0]',          
                                                                  'batch_normalization_62[0][0]'] 
                                                                                                  
 activation_62 (Activation)     (None, 32, 32, 32)   0           ['add_30[0][0]']                 
                                                                                                  
 conv2d_64 (Conv2D)             (None, 32, 32, 32)   9248        ['activation_62[0][0]']          
                                                                                                  
 batch_normalization_63 (BatchN  (None, 32, 32, 32)  128         ['conv2d_64[0][0]']              
 ormalization)                                                                                    
                                                                                                  
 activation_63 (Activation)     (None, 32, 32, 32)   0           ['batch_normalization_63[0][0]'] 
                                                                                                  
 conv2d_65 (Conv2D)             (None, 32, 32, 32)   9248        ['activation_63[0][0]']          
                                                                                                  
 batch_normalization_64 (BatchN  (None, 32, 32, 32)  128         ['conv2d_65[0][0]']              
 ormalization)                                                                                    
                                                                                                  
 add_31 (Add)                   (None, 32, 32, 32)   0           ['activation_62[0][0]',          
                                                                  'batch_normalization_64[0][0]'] 
                                                                                                  
 activation_64 (Activation)     (None, 32, 32, 32)   0           ['add_31[0][0]']                 
                                                                                                  
 conv2d_66 (Conv2D)             (None, 32, 32, 32)   9248        ['activation_64[0][0]']          
                                                                                                  
 batch_normalization_65 (BatchN  (None, 32, 32, 32)  128         ['conv2d_66[0][0]']              
 ormalization)                                                                                    
                                                                                                  
 activation_65 (Activation)     (None, 32, 32, 32)   0           ['batch_normalization_65[0][0]'] 
                                                                                                  
 conv2d_67 (Conv2D)             (None, 32, 32, 32)   9248        ['activation_65[0][0]']          
                                                                                                  
 batch_normalization_66 (BatchN  (None, 32, 32, 32)  128         ['conv2d_67[0][0]']              
 ormalization)                                                                                    
                                                                                                  
 add_32 (Add)                   (None, 32, 32, 32)   0           ['activation_64[0][0]',          
                                                                  'batch_normalization_66[0][0]'] 
                                                                                                  
 activation_66 (Activation)     (None, 32, 32, 32)   0           ['add_32[0][0]']                 
                                                                                                  
 conv2d_68 (Conv2D)             (None, 32, 32, 32)   9248        ['activation_66[0][0]']          
                                                                                                  
 batch_normalization_67 (BatchN  (None, 32, 32, 32)  128         ['conv2d_68[0][0]']              
 ormalization)                                                                                    
                                                                                                  
 activation_67 (Activation)     (None, 32, 32, 32)   0           ['batch_normalization_67[0][0]'] 
                                                                                                  
 conv2d_69 (Conv2D)             (None, 32, 32, 32)   9248        ['activation_67[0][0]']          
                                                                                                  
 batch_normalization_68 (BatchN  (None, 32, 32, 32)  128         ['conv2d_69[0][0]']              
 ormalization)                                                                                    
                                                                                                  
 add_33 (Add)                   (None, 32, 32, 32)   0           ['activation_66[0][0]',          
                                                                  'batch_normalization_68[0][0]'] 
                                                                                                  
 activation_68 (Activation)     (None, 32, 32, 32)   0           ['add_33[0][0]']                 
                                                                                                  
 conv2d_70 (Conv2D)             (None, 16, 16, 64)   18496       ['activation_68[0][0]']          
                                                                                                  
 batch_normalization_69 (BatchN  (None, 16, 16, 64)  256         ['conv2d_70[0][0]']              
 ormalization)                                                                                    
                                                                                                  
 activation_69 (Activation)     (None, 16, 16, 64)   0           ['batch_normalization_69[0][0]'] 
                                                                                                  
 conv2d_71 (Conv2D)             (None, 16, 16, 64)   36928       ['activation_69[0][0]']          
                                                                                                  
 conv2d_72 (Conv2D)             (None, 16, 16, 64)   2112        ['activation_68[0][0]']          
                                                                                                  
 batch_normalization_70 (BatchN  (None, 16, 16, 64)  256         ['conv2d_71[0][0]']              
 ormalization)                                                                                    
                                                                                                  
 add_34 (Add)                   (None, 16, 16, 64)   0           ['conv2d_72[0][0]',              
                                                                  'batch_normalization_70[0][0]'] 
                                                                                                  
 activation_70 (Activation)     (None, 16, 16, 64)   0           ['add_34[0][0]']                 
                                                                                                  
 conv2d_73 (Conv2D)             (None, 16, 16, 64)   36928       ['activation_70[0][0]']          
                                                                                                  
 batch_normalization_71 (BatchN  (None, 16, 16, 64)  256         ['conv2d_73[0][0]']              
 ormalization)                                                                                    
                                                                                                  
 activation_71 (Activation)     (None, 16, 16, 64)   0           ['batch_normalization_71[0][0]'] 
                                                                                                  
 conv2d_74 (Conv2D)             (None, 16, 16, 64)   36928       ['activation_71[0][0]']          
                                                                                                  
 batch_normalization_72 (BatchN  (None, 16, 16, 64)  256         ['conv2d_74[0][0]']              
 ormalization)                                                                                    
                                                                                                  
 add_35 (Add)                   (None, 16, 16, 64)   0           ['activation_70[0][0]',          
                                                                  'batch_normalization_72[0][0]'] 
                                                                                                  
 activation_72 (Activation)     (None, 16, 16, 64)   0           ['add_35[0][0]']                 
                                                                                                  
 conv2d_75 (Conv2D)             (None, 16, 16, 64)   36928       ['activation_72[0][0]']          
                                                                                                  
 batch_normalization_73 (BatchN  (None, 16, 16, 64)  256         ['conv2d_75[0][0]']              
 ormalization)                                                                                    
                                                                                                  
 activation_73 (Activation)     (None, 16, 16, 64)   0           ['batch_normalization_73[0][0]'] 
                                                                                                  
 conv2d_76 (Conv2D)             (None, 16, 16, 64)   36928       ['activation_73[0][0]']          
                                                                                                  
 batch_normalization_74 (BatchN  (None, 16, 16, 64)  256         ['conv2d_76[0][0]']              
 ormalization)                                                                                    
                                                                                                  
 add_36 (Add)                   (None, 16, 16, 64)   0           ['activation_72[0][0]',          
                                                                  'batch_normalization_74[0][0]'] 
                                                                                                  
 activation_74 (Activation)     (None, 16, 16, 64)   0           ['add_36[0][0]']                 
                                                                                                  
 conv2d_77 (Conv2D)             (None, 16, 16, 64)   36928       ['activation_74[0][0]']          
                                                                                                  
 batch_normalization_75 (BatchN  (None, 16, 16, 64)  256         ['conv2d_77[0][0]']              
 ormalization)                                                                                    
                                                                                                  
 activation_75 (Activation)     (None, 16, 16, 64)   0           ['batch_normalization_75[0][0]'] 
                                                                                                  
 conv2d_78 (Conv2D)             (None, 16, 16, 64)   36928       ['activation_75[0][0]']          
                                                                                                  
 batch_normalization_76 (BatchN  (None, 16, 16, 64)  256         ['conv2d_78[0][0]']              
 ormalization)                                                                                    
                                                                                                  
 add_37 (Add)                   (None, 16, 16, 64)   0           ['activation_74[0][0]',          
                                                                  'batch_normalization_76[0][0]'] 
                                                                                                  
 activation_76 (Activation)     (None, 16, 16, 64)   0           ['add_37[0][0]']                 
                                                                                                  
 conv2d_79 (Conv2D)             (None, 16, 16, 64)   36928       ['activation_76[0][0]']          
                                                                                                  
 batch_normalization_77 (BatchN  (None, 16, 16, 64)  256         ['conv2d_79[0][0]']              
 ormalization)                                                                                    
                                                                                                  
 activation_77 (Activation)     (None, 16, 16, 64)   0           ['batch_normalization_77[0][0]'] 
                                                                                                  
 conv2d_80 (Conv2D)             (None, 16, 16, 64)   36928       ['activation_77[0][0]']          
                                                                                                  
 batch_normalization_78 (BatchN  (None, 16, 16, 64)  256         ['conv2d_80[0][0]']              
 ormalization)                                                                                    
                                                                                                  
 add_38 (Add)                   (None, 16, 16, 64)   0           ['activation_76[0][0]',          
                                                                  'batch_normalization_78[0][0]'] 
                                                                                                  
 activation_78 (Activation)     (None, 16, 16, 64)   0           ['add_38[0][0]']                 
                                                                                                  
 conv2d_81 (Conv2D)             (None, 16, 16, 64)   36928       ['activation_78[0][0]']          
                                                                                                  
 batch_normalization_79 (BatchN  (None, 16, 16, 64)  256         ['conv2d_81[0][0]']              
 ormalization)                                                                                    
                                                                                                  
 activation_79 (Activation)     (None, 16, 16, 64)   0           ['batch_normalization_79[0][0]'] 
                                                                                                  
 conv2d_82 (Conv2D)             (None, 16, 16, 64)   36928       ['activation_79[0][0]']          
                                                                                                  
 batch_normalization_80 (BatchN  (None, 16, 16, 64)  256         ['conv2d_82[0][0]']              
 ormalization)                                                                                    
                                                                                                  
 add_39 (Add)                   (None, 16, 16, 64)   0           ['activation_78[0][0]',          
                                                                  'batch_normalization_80[0][0]'] 
                                                                                                  
 activation_80 (Activation)     (None, 16, 16, 64)   0           ['add_39[0][0]']                 
                                                                                                  
 conv2d_83 (Conv2D)             (None, 16, 16, 64)   36928       ['activation_80[0][0]']          
                                                                                                  
 batch_normalization_81 (BatchN  (None, 16, 16, 64)  256         ['conv2d_83[0][0]']              
 ormalization)                                                                                    
                                                                                                  
 activation_81 (Activation)     (None, 16, 16, 64)   0           ['batch_normalization_81[0][0]'] 
                                                                                                  
 conv2d_84 (Conv2D)             (None, 16, 16, 64)   36928       ['activation_81[0][0]']          
                                                                                                  
 batch_normalization_82 (BatchN  (None, 16, 16, 64)  256         ['conv2d_84[0][0]']              
 ormalization)                                                                                    
                                                                                                  
 add_40 (Add)                   (None, 16, 16, 64)   0           ['activation_80[0][0]',          
                                                                  'batch_normalization_82[0][0]'] 
                                                                                                  
 activation_82 (Activation)     (None, 16, 16, 64)   0           ['add_40[0][0]']                 
                                                                                                  
 conv2d_85 (Conv2D)             (None, 16, 16, 64)   36928       ['activation_82[0][0]']          
                                                                                                  
 batch_normalization_83 (BatchN  (None, 16, 16, 64)  256         ['conv2d_85[0][0]']              
 ormalization)                                                                                    
                                                                                                  
 activation_83 (Activation)     (None, 16, 16, 64)   0           ['batch_normalization_83[0][0]'] 
                                                                                                  
 conv2d_86 (Conv2D)             (None, 16, 16, 64)   36928       ['activation_83[0][0]']          
                                                                                                  
 batch_normalization_84 (BatchN  (None, 16, 16, 64)  256         ['conv2d_86[0][0]']              
 ormalization)                                                                                    
                                                                                                  
 add_41 (Add)                   (None, 16, 16, 64)   0           ['activation_82[0][0]',          
                                                                  'batch_normalization_84[0][0]'] 
                                                                                                  
 activation_84 (Activation)     (None, 16, 16, 64)   0           ['add_41[0][0]']                 
                                                                                                  
 conv2d_87 (Conv2D)             (None, 16, 16, 64)   36928       ['activation_84[0][0]']          
                                                                                                  
 batch_normalization_85 (BatchN  (None, 16, 16, 64)  256         ['conv2d_87[0][0]']              
 ormalization)                                                                                    
                                                                                                  
 activation_85 (Activation)     (None, 16, 16, 64)   0           ['batch_normalization_85[0][0]'] 
                                                                                                  
 conv2d_88 (Conv2D)             (None, 16, 16, 64)   36928       ['activation_85[0][0]']          
                                                                                                  
 batch_normalization_86 (BatchN  (None, 16, 16, 64)  256         ['conv2d_88[0][0]']              
 ormalization)                                                                                    
                                                                                                  
 add_42 (Add)                   (None, 16, 16, 64)   0           ['activation_84[0][0]',          
                                                                  'batch_normalization_86[0][0]'] 
                                                                                                  
 activation_86 (Activation)     (None, 16, 16, 64)   0           ['add_42[0][0]']                 
                                                                                                  
 conv2d_89 (Conv2D)             (None, 16, 16, 64)   36928       ['activation_86[0][0]']          
                                                                                                  
 batch_normalization_87 (BatchN  (None, 16, 16, 64)  256         ['conv2d_89[0][0]']              
 ormalization)                                                                                    
                                                                                                  
 activation_87 (Activation)     (None, 16, 16, 64)   0           ['batch_normalization_87[0][0]'] 
                                                                                                  
 conv2d_90 (Conv2D)             (None, 16, 16, 64)   36928       ['activation_87[0][0]']          
                                                                                                  
 batch_normalization_88 (BatchN  (None, 16, 16, 64)  256         ['conv2d_90[0][0]']              
 ormalization)                                                                                    
                                                                                                  
 add_43 (Add)                   (None, 16, 16, 64)   0           ['activation_86[0][0]',          
                                                                  'batch_normalization_88[0][0]'] 
                                                                                                  
 activation_88 (Activation)     (None, 16, 16, 64)   0           ['add_43[0][0]']                 
                                                                                                  
 conv2d_91 (Conv2D)             (None, 16, 16, 64)   36928       ['activation_88[0][0]']          
                                                                                                  
 batch_normalization_89 (BatchN  (None, 16, 16, 64)  256         ['conv2d_91[0][0]']              
 ormalization)                                                                                    
                                                                                                  
 activation_89 (Activation)     (None, 16, 16, 64)   0           ['batch_normalization_89[0][0]'] 
                                                                                                  
 conv2d_92 (Conv2D)             (None, 16, 16, 64)   36928       ['activation_89[0][0]']          
                                                                                                  
 batch_normalization_90 (BatchN  (None, 16, 16, 64)  256         ['conv2d_92[0][0]']              
 ormalization)                                                                                    
                                                                                                  
 add_44 (Add)                   (None, 16, 16, 64)   0           ['activation_88[0][0]',          
                                                                  'batch_normalization_90[0][0]'] 
                                                                                                  
 activation_90 (Activation)     (None, 16, 16, 64)   0           ['add_44[0][0]']                 
                                                                                                  
 conv2d_93 (Conv2D)             (None, 16, 16, 64)   36928       ['activation_90[0][0]']          
                                                                                                  
 batch_normalization_91 (BatchN  (None, 16, 16, 64)  256         ['conv2d_93[0][0]']              
 ormalization)                                                                                    
                                                                                                  
 activation_91 (Activation)     (None, 16, 16, 64)   0           ['batch_normalization_91[0][0]'] 
                                                                                                  
 conv2d_94 (Conv2D)             (None, 16, 16, 64)   36928       ['activation_91[0][0]']          
                                                                                                  
 batch_normalization_92 (BatchN  (None, 16, 16, 64)  256         ['conv2d_94[0][0]']              
 ormalization)                                                                                    
                                                                                                  
 add_45 (Add)                   (None, 16, 16, 64)   0           ['activation_90[0][0]',          
                                                                  'batch_normalization_92[0][0]'] 
                                                                                                  
 activation_92 (Activation)     (None, 16, 16, 64)   0           ['add_45[0][0]']                 
                                                                                                  
 conv2d_95 (Conv2D)             (None, 16, 16, 64)   36928       ['activation_92[0][0]']          
                                                                                                  
 batch_normalization_93 (BatchN  (None, 16, 16, 64)  256         ['conv2d_95[0][0]']              
 ormalization)                                                                                    
                                                                                                  
 activation_93 (Activation)     (None, 16, 16, 64)   0           ['batch_normalization_93[0][0]'] 
                                                                                                  
 conv2d_96 (Conv2D)             (None, 16, 16, 64)   36928       ['activation_93[0][0]']          
                                                                                                  
 batch_normalization_94 (BatchN  (None, 16, 16, 64)  256         ['conv2d_96[0][0]']              
 ormalization)                                                                                    
                                                                                                  
 add_46 (Add)                   (None, 16, 16, 64)   0           ['activation_92[0][0]',          
                                                                  'batch_normalization_94[0][0]'] 
                                                                                                  
 activation_94 (Activation)     (None, 16, 16, 64)   0           ['add_46[0][0]']                 
                                                                                                  
 conv2d_97 (Conv2D)             (None, 16, 16, 64)   36928       ['activation_94[0][0]']          
                                                                                                  
 batch_normalization_95 (BatchN  (None, 16, 16, 64)  256         ['conv2d_97[0][0]']              
 ormalization)                                                                                    
                                                                                                  
 activation_95 (Activation)     (None, 16, 16, 64)   0           ['batch_normalization_95[0][0]'] 
                                                                                                  
 conv2d_98 (Conv2D)             (None, 16, 16, 64)   36928       ['activation_95[0][0]']          
                                                                                                  
 batch_normalization_96 (BatchN  (None, 16, 16, 64)  256         ['conv2d_98[0][0]']              
 ormalization)                                                                                    
                                                                                                  
 add_47 (Add)                   (None, 16, 16, 64)   0           ['activation_94[0][0]',          
                                                                  'batch_normalization_96[0][0]'] 
                                                                                                  
 activation_96 (Activation)     (None, 16, 16, 64)   0           ['add_47[0][0]']                 
                                                                                                  
 conv2d_99 (Conv2D)             (None, 16, 16, 64)   36928       ['activation_96[0][0]']          
                                                                                                  
 batch_normalization_97 (BatchN  (None, 16, 16, 64)  256         ['conv2d_99[0][0]']              
 ormalization)                                                                                    
                                                                                                  
 activation_97 (Activation)     (None, 16, 16, 64)   0           ['batch_normalization_97[0][0]'] 
                                                                                                  
 conv2d_100 (Conv2D)            (None, 16, 16, 64)   36928       ['activation_97[0][0]']          
                                                                                                  
 batch_normalization_98 (BatchN  (None, 16, 16, 64)  256         ['conv2d_100[0][0]']             
 ormalization)                                                                                    
                                                                                                  
 add_48 (Add)                   (None, 16, 16, 64)   0           ['activation_96[0][0]',          
                                                                  'batch_normalization_98[0][0]'] 
                                                                                                  
 activation_98 (Activation)     (None, 16, 16, 64)   0           ['add_48[0][0]']                 
                                                                                                  
 conv2d_101 (Conv2D)            (None, 16, 16, 64)   36928       ['activation_98[0][0]']          
                                                                                                  
 batch_normalization_99 (BatchN  (None, 16, 16, 64)  256         ['conv2d_101[0][0]']             
 ormalization)                                                                                    
                                                                                                  
 activation_99 (Activation)     (None, 16, 16, 64)   0           ['batch_normalization_99[0][0]'] 
                                                                                                  
 conv2d_102 (Conv2D)            (None, 16, 16, 64)   36928       ['activation_99[0][0]']          
                                                                                                  
 batch_normalization_100 (Batch  (None, 16, 16, 64)  256         ['conv2d_102[0][0]']             
 Normalization)                                                                                   
                                                                                                  
 add_49 (Add)                   (None, 16, 16, 64)   0           ['activation_98[0][0]',          
                                                                  'batch_normalization_100[0][0]']
                                                                                                  
 activation_100 (Activation)    (None, 16, 16, 64)   0           ['add_49[0][0]']                 
                                                                                                  
 conv2d_103 (Conv2D)            (None, 16, 16, 64)   36928       ['activation_100[0][0]']         
                                                                                                  
 batch_normalization_101 (Batch  (None, 16, 16, 64)  256         ['conv2d_103[0][0]']             
 Normalization)                                                                                   
                                                                                                  
 activation_101 (Activation)    (None, 16, 16, 64)   0           ['batch_normalization_101[0][0]']
                                                                                                  
 conv2d_104 (Conv2D)            (None, 16, 16, 64)   36928       ['activation_101[0][0]']         
                                                                                                  
 batch_normalization_102 (Batch  (None, 16, 16, 64)  256         ['conv2d_104[0][0]']             
 Normalization)                                                                                   
                                                                                                  
 add_50 (Add)                   (None, 16, 16, 64)   0           ['activation_100[0][0]',         
                                                                  'batch_normalization_102[0][0]']
                                                                                                  
 activation_102 (Activation)    (None, 16, 16, 64)   0           ['add_50[0][0]']                 
                                                                                                  
 average_pooling2d (AveragePool  (None, 2, 2, 64)    0           ['activation_102[0][0]']         
 ing2D)                                                                                           
                                                                                                  
 flatten (Flatten)              (None, 256)          0           ['average_pooling2d[0][0]']      
                                                                                                  
 dense (Dense)                  (None, 7)            1799        ['flatten[0][0]']                
                                                                                                  
==================================================================================================
Total params: 1,645,735
Trainable params: 1,638,087
Non-trainable params: 7,648
__________________________________________________________________________________________________
…
